09_cnns/cifar100_model_epoch_19.pth (torch, 516359 bytes, 10 tensors)

conv1.weight f4 [6, 3, 5, 5]
0.26905927 0.2776184 0.1436193 0.2038261 0.118744746 0.20899631 0.17669958 0.24644142
0.22817193 0.08384605 0.2900871 0.2481489 0.27080488 0.16193035 0.17850175 0.19157584
0.2940759 0.22988734 0.09578487 0.12858896 0.15592422 0.19910304 0.16082066 0.22470896
0.022011705 -0.06318758 -0.090665594 -0.16503121 -0.14775823 -0.18199596 0.089510895 -0.123992205
-0.025702566 -0.15043928 -0.119344786 0.068325244 -0.010088747 -0.01854233 -0.14669856 -0.17211075
0.06189887 -0.05515164 -0.012409726 -0.033738296 -0.07937521 0.0038524056 0.088846624 -0.0008239969
-0.0357544 -0.16395268 -0.20090716 -0.2048041 -0.2958557 -0.17132626 -0.13086307 0.0034389282
-0.054248217 -0.19750473 -0.16712871 -0.24620263 0.021465793 -0.12665594 -0.12615192 -0.272492
-0.16403459 0.06072099 0.09814373 -0.1459223 -0.2592423 -0.2625113 0.23098984 0.11183062
0.0959008 -0.2263047 -0.24728881 -0.11956875 -0.1671371 -0.046397906 0.0021338286 0.13989694
-0.17057626 -0.28222954 -0.17092985 -0.24608599 -0.03607599 -0.15604791 -0.17671072 -0.38512656
-0.34391806 -0.18294643 -0.0452105 -0.1954155 -0.16046265 -0.17059368 -0.30273405 -0.026239486
0.08700175 -0.111574 -0.16169651 -0.23488322 0.013847893 0.03178665 -0.035204675 -0.062674165
0.09217523 -0.07551757 -0.20474193 -0.21852866 -0.23952986 -0.13664635 0.10946767 -0.113996595
-0.17165096 -0.32252365 -0.24359806 0.02154196 -0.03476901 -0.23650913 -0.2241084 -0.23224461
0.16484107 0.05244292 0.014271245 -0.12401522 -0.1446293 -0.02016467 -0.06265564 -0.13898589
0.08603393 0.042814087 0.088164076 -0.07353117 -0.25358844 -0.060680866 -0.08980179 -0.057401706
-0.22471972 -0.3085181 -0.16285942 -0.16486211 0.09418712 -0.1450846 -0.0397978 -0.2382742
-0.14813906 0.171249 0.1451606 0.11086463 0.070004135 -0.1285283 0.05646191 -0.028923888
-0.0084974235 -0.09024192 0.08022584 -0.08589423 0.070976205 0.049675807 0.06165014 -0.06686031
0.030363513 0.0009775815 0.0071486 -0.09414654 0.043255623 -0.08566091 -0.10056235 0.08376406
0.019790845 -0.09630525 -0.09592635 -0.04648822 0.029213067 -0.057228085 -0.10598481 0.13966635
0.09297263 0.21121107 0.24278244 0.004774648 0.18715596 0.23202677 0.19493243 0.1458744
0.20962778 0.15472546 0.18367164 0.13057633 0.14250983 0.17025246 0.086448334 0.085987195
0.21670695 0.2626516 0.12657848 0.11676807 0.13130142 0.11913576 0.17132361 0.16874757
-0.24941626 -0.22043851 -0.097440645 -0.15621668 -0.19770674 -0.23491529 -0.28024197 -0.32553363
-0.22967152 -0.12912525 -0.12571071 -0.17077187 -0.3422098 -0.27330667 -0.17803733 -0.03843629
-0.18221565 -0.24621055 -0.14444023 -0.20401973 -0.15717956 -0.051946875 -0.22951716 -0.18271632
-0.23609297 -0.014071846 -0.0029841964 0.16148588 -0.050884802 -0.20697623 -0.21974492 -0.018748611
0.21066362 0.23094578 0.08149555 0.081139535 -0.1858639 0.005110082 -0.022275608 -0.1359453
0.19096631 -0.3042886 -0.016242722 -0.046976607 -0.07283726 -0.060636166 -0.3012054 0.15625544
0.10887261 0.10235487 0.011626286 -0.010380641 0.19908841 0.034774262 -0.06304839 -0.09937617
00000000: 23c2 893e 0024 8e3e f010 133e cab7 503e
00000010: 7230 f33d 2103 563e bcf0 343e 245b 7c3e
00000020: e7a5 693e 7ab7 ab3d 4c86 943e bf1a 7e3e
00000030: f0a6 8a3e 12d1 253e 2ac9 363e 752c 443e
00000040: 1e91 963e 9667 6b3e dc2a c43d d3ac 033e
00000050: 99aa 1f3e abe1 4b3e 2cae 243e 1b1a 663e
00000060: e451 b43c 7d68 81bd e2ae b9bd f1fd 28be
00000070: ef4d 17be 265d 3abe 7d51 b73d a0ef fdbd
00000080: 308e d2bc c10c 1abe 0a6b f4bd 1bee 8b3d
00000090: 464b 25bc 16e6 97bc 2638 16be cd3d 30be
000000a0: ab89 7d3d b0e6 61bd 2a52 4bbc 2b31 0abd
000000b0: 788f a2bd a478 7c3b 38f5 b53d 7f01 58ba
000000c0: 3573 12bd 36e3 27be 9bba 4dbe 2ab8 51be
000000d0: 667a 97be 2770 2fbe f800 06be a45f 613b
000000e0: 6133 5ebd ae3e 4abe ca23 2bbe 8b1c 7cbe
000000f0: 08d9 af3c 18b2 01be f82d 01be 1284 8bbe
00000100: aff8 27be 93b6 783d 94ff c83d a86c 15be
00000110: 68bb 84be e267 86be 9a88 6c3e 7407 e53d
00000120: a367 c43d 6bbc 67be 4739 7dbe 76e0 f4bd
00000130: fd25 2bbe bb0b 3ebd b4d7 0b3b 2541 0f3e
00000140: 8bab 2ebe 6480 90be 3c08 2fbe f7fd 7bbe
00000150: 6bc4 13bd 06cb 1fbe a8f3 34be 4f2f c5be
00000160: 0716 b0be 4f56 3bbe a52e 39bd 001b 48be
00000170: 5250 24be 1cb0 2ebe f5ff 9abe 31f4 d6bc
00000180: f92d b23d e980 e4bd c593 25be 3a85 70be
00000190: 46e2 623c b832 023d c732 10bd 505b 80bd
000001a0: 5ec6 bc3d f5a8 9abd dea7 51be fac5 5fbe
000001b0: 5147 75be 05ed 0bbe 9630 e03d 0c77 e9bd
000001c0: 45c5 2fbe d221 a5be c571 79be c478 b03c
000001d0: f369 0ebd 732f 72be ac7c 65be 88d1 6dbe
000001e0: 19cc 283e 63ce 563d f1d1 693c b1fb fdbd
000001f0: b419 14be 6130 a5bc 9a51 80bd 5152 0ebe
00000200: 8f32 b03d d35d 2f3d 5e8f b43d 8397 96bd
00000210: 58d6 81be 808c 78bd 00ea b7bd 0d1e 6bbd
00000220: ed1c 66be 16f6 9dbe 9fc4 26be 9dd1 28be
00000230: 2de5 c03d 0f91 14be 0503 23bd 27fe 73be
00000240: c4b1 17be e65b 2f3e fba4 143e ff0c e33d
00000250: 545e 8f3d ec9c 03be 9b44 673d caf1 ecbc
00000260: c738 0bbc c1d0 b8bd 724d a43d 50e9 afbd
00000270: f95b 913d dc78 4b3d db84 7c3d 0fee 88bd
00000280: e7bc f83c 3122 803a ce3e ea3b e7cf c0bd
00000290: cf2c 313d fd6e afbd a2f3 cdbd 7e8c ab3d
000002a0: 6920 a23c b03b c5bd 0975 c4bd 6f6a 3ebd
000002b0: 3e50 ef3c ff67 6abd 900e d9bd b204 0f3e
000002c0: 6f68 be3d b747 583e f69b 783e a774 9c3b
000002d0: d0a5 3f3e 6d98 6d3e 5e9c 473e 1960 153e
000002e0: aaa8 563e 5a70 1e3e 6b14 3c3e cdb5 053e
000002f0: 19ee 113e a956 2e3e d30b b13d 0e1a b03d
00000300: 6de8 5d3e 457a 863e ca9d 013e 1924 ef3d
00000310: e173 063e 73fd f33d 756f 2f3e 2acc 2c3e
00000320: fa66 7fbe a2ba 61be f68e c7bd 44f7 1fbe
00000330: a373 4abe a28d 70be e07b 8fbe 58ac a6be
00000340: 032f 6bbe 6939 04be 4fba 00be d2de 2ebe
00000350: 1f36 afbe daee 8bbe 6b4f 36be 5f6f 1dbd
00000360: bd96 3abe 9e1e 7cbe 24e8 13be 8cea 50be
00000370: aef3 20be 3fc6 54bd 8c06 6bbe fd19 3bbe
00000380: 5bc2 71be 9a8d 66bc 8292 43bb 8e5c 253e
00000390: 956c 50bd 94f1 53be d004 61be b096 99bc
000003a0: 34b8 573e 0d7d 6c3e 24e7 a63d 7c2c a63d
000003b0: 1b53 3ebe 7a72 a73b 567b b6bc 3f35 0bbe
000003c0: ac8c 433e b7cb 9bbe 750f 85bc 8b6a 40bd
000003d0: b42b 95bd a15d 78bd 9837 9abe 6d01 203e
000003e0: 9af8 de3d 6e9f d13d 2e7c 3e3c 9013 2abc
000003f0: d5dd 4b3e 756f 0e3d 841f 81bd bc85 cbbd

conv1.bias f4 [6]
0.6116889 0.6406779 -0.0515839 1.2597818 0.13575667 0.48173556
00000000: a597 1c3f 7803 243f a449 53bd 8840 a13f
00000010: cc03 0b3e 0ba6 f63e

conv2.weight f4 [16, 6, 5, 5]
-0.040235694 0.046761647 -0.018693974 -0.09046879 -0.029047359 -0.008231584 -0.012897755 -0.091181874
-0.012371403 -0.057112962 -0.10472812 -0.11566783 0.031658314 0.030897483 0.052849453 0.02426663
0.00053448527 -0.056991518 -0.09069119 -0.00025822502 -0.05073747 -0.082962796 -0.033134542 -0.015343094
-0.0019969079 -0.00070595864 -0.024336573 0.048206735 -0.003304866 0.032457165 0.06475184 0.0030646743
0.099323176 0.11396182 0.087797746 0.06395734 0.03483725 -0.0049835 -0.019280937 0.026107581
0.078808986 0.10923211 -0.0015842943 -0.008457582 0.014606002 0.020391747 0.1112931 0.19985244
0.23509023 0.21896456 -0.10432303 -0.084637426 -0.059486512 -0.06417832 -0.045995522 -0.10563737
-0.002842082 -0.08621945 -0.08349775 -0.105984524 0.045317512 -0.093269095 0.050520174 -0.020121226
-0.02867076 0.035068195 -0.0038478773 0.06414898 0.07098026 -0.06933841 0.026336009 0.032032635
0.05184829 0.048057146 0.057037786 -0.09957636 -0.061042055 0.020210035 -0.0055532227 -0.0691997
-0.10017196 -0.010973469 -0.077153906 0.03183694 -0.072986856 -0.015062482 -0.0012454168 0.026028173
0.07612776 0.020672584 0.063522324 0.10505379 0.11722336 0.020409815 0.0474862 0.07411247
0.039576024 0.118289 0.06995513 0.05313533 -0.03958409 -0.051655598 -0.016264845 0.035934
0.029343026 -0.011812424 -0.08298177 -0.1488335 -0.12900972 -0.0972453 -0.16576017 -0.14299668
-0.1731866 -0.16211922 -0.11082646 -0.15543407 -0.12922846 -0.030785346 0.03355197 -0.049777508
-0.051127736 0.020710856 -0.035436798 -0.0110900495 0.08230013 0.010965008 0.07736942 0.101378985
0.06705732 0.064228155 0.021924794 0.07227175 0.04728028 0.07125024 0.07361229 0.0993731
-0.0026277169 0.051598057 0.0054847985 -0.011241055 -0.024138452 -0.051753383 0.051429633 0.0150600625
-0.003444866 0.012728704 -0.088338695 -0.10326173 -0.07304601 -0.07350527 0.022867665 0.0547718
0.13320121 0.16809013 0.1505141 0.0044476623 -0.009751226 0.11514441 0.111477375 0.09182108
-0.005101704 -0.09505445 -0.065128036 0.07299704 -0.001719015 -0.06580738 -0.14643496 -0.1403097
-0.07944927 -0.099381916 -0.06822669 -0.038183242 -0.16000307 -0.05854961 -0.09554311 -0.1426871
-0.07159136 -0.038583588 -0.1318721 -0.13373414 -0.166483 -0.1454221 -0.20126033 -0.13031593
-0.036279723 -0.061569795 0.096367694 0.05217815 -0.066618375 0.04213541 0.11918955 0.09867867
0.085852966 0.07632097 0.24195163 -0.013274962 0.13792582 0.07880775 0.0854075 0.17993745
0.015532295 -0.030284716 -0.0055364226 0.06822512 -0.055177964 0.049232487 -0.065690234 0.046935987
0.037431702 0.01941951 0.05738094 0.01141355 0.044137247 -0.060956705 0.003763698 0.047360953
0.07762166 0.031085888 -0.06617816 0.06606134 -0.025648532 -0.03356421 -0.099725455 -0.034494247
0.046999678 -0.041324485 -0.12260634 -0.05497494 -0.12315805 -0.02071262 -0.0984615 -0.07134869
-0.1328094 -0.094068766 -0.023973992 0.079974934 -0.0018169906 0.076442055 0.0031525881 0.04509442
0.08123237 0.07907001 -0.030111343 0.10175977 0.070391096 -0.022811905 -0.028020723 -0.06363336
0.040814128 -0.060560793 0.03242937 0.020801017 -0.07536073 0.021221258 0.021330941 0.05564698
00000000: 2fce 24bd 2489 3f3d 1b24 99bc b347 b9bd
00000010: baf4 edbc c4dd 06bc 1b51 53bc 90bd babd
00000020: 6db1 4abc 48ef 69bd b27b d6bd 41e3 ecbd
00000030: 26ac 013d b81c fd3c ab78 583d d0ca c63c
00000040: b31c 0c3a f06f 69bd 4dbc b9bd 6062 87b9
00000050: 18d2 4fbd 66e8 a9bd 16b8 07bd 9a61 7bbc
00000060: 8ede 02bb 1510 39ba 7e5d c7bc 6d74 453d
00000070: 7396 58bb cef1 043d 9d9c 843d b4d8 483b
00000080: f369 cb3d d164 e93d 4ecf b33d 11fc 823d
00000090: 81b1 0e3d a14c a3bb 0ef3 9dbc 91df d53c
000000a0: 9b66 a13d 16b5 df3d 18a8 cfba ac91 0abc
000000b0: 034e 6f3c 980c a73c a3ed e33d 1ea6 4c3e
000000c0: 7ebb 703e 3f38 603e 50a7 d5bd 6356 adbd
000000d0: 21a8 73bd ec6f 83bd cd65 3cbd 6858 d8bd
000000e0: 3942 3abb d393 b0bd de00 abbd 6a0e d9bd
000000f0: db9e 393d de03 bfbd 3eee 4e3d 45d5 a4bc
00000100: f1de eabc aba3 0f3d ab2c 7cbb 8a60 833d
00000110: 195e 913d 4c01 8ebd 9dbe d73c a734 033d
00000120: df5e 543d 92d7 443d 74a0 693d b1ee cbbd
00000130: 3c07 7abd 848f a53c cff7 b5bb 93b8 8dbd
00000140: f526 cdbd 11ca 33bc de02 9ebd 7467 023d
00000150: 227a 95bd a1c8 76bc 413d a3ba 0939 d53c
00000160: dfe8 9b3d 8d59 a93c fe17 823d 7126 d73d
00000170: cd12 f03d 7c32 a73c e480 423d 47c8 973d
00000180: 781a 223d 8141 f23d a344 8f3d 6fa4 593d
00000190: ed22 22bd d294 53bd da3d 85bc 882f 133d
000001a0: c960 f03c e688 41bc 59f2 a9bd cf67 18be
000001b0: 201b 04be 8b28 c7bd 09bd 29be b96d 12be
000001c0: d457 31be 9502 26be fcf8 e2bd 1c2a 1fbe
000001d0: 7754 04be 8d31 fcbc ca6d 093d 80e3 4bbd
000001e0: 516b 51bd d0a9 a93c 2d26 11bd 0ab3 35bc
000001f0: f88c a83d 94a6 333c dc73 9e3d c99f cf3d
00000200: 5955 893d 0d8a 833d a09b b33c 3603 943d
00000210: f8a8 413d a5eb 913d 0ac2 963d 2084 cb3d
00000220: c635 2cbb 7c58 533d d3b9 b33b 672c 38bc
00000230: 01be c5bc 5bfb 53bd e1a7 523d 7bbe 763c
00000240: 43c3 61bb 0e8c 503c ebea b4bd e37a d3bd
00000250: 2699 95bd ee89 96bd f854 bb3c 6558 603d
00000260: e665 083e d21f 2c3e 5e20 1a3e b2bd 913b
00000270: 9bc3 1fbc d5d0 eb3d 404e e43d b10c bc3d
00000280: 322c a7bb e8ab c2bd d961 85bd 797f 953d
00000290: 9250 e1ba 05c6 86bd 0cf3 15be 59ad 0fbe
000002a0: 4db6 a2bd bf88 cbbd 6fba 8bbd 0866 1cbd
000002b0: d8d7 23be b7d1 6fbd 1bac c3bd 911c 12be
000002c0: 7e9e 92bd d309 1ebd 7b09 07be 9af1 08be
000002d0: 857a 2abe 88e9 14be 3017 4ebe 8a71 05be
000002e0: 0c9a 14bd 9c30 7cbd 6d5c c53d c1b8 553d
000002f0: 376f 88bd 2e96 2c3d a719 f43d 0b18 ca3d
00000300: aed3 af3d 2b4e 9c3d 2bc2 773e 3a7f 59bc
00000310: 6d3c 0d3e f565 a13d 21ea ae3d 8641 383e
00000320: 2b7b 7e3c a717 f8bc e16a b5bb 9db9 8b3d
00000330: 4a02 62bd 01a8 493d 9a88 86bd f33f 403d
00000340: fc51 193d aa15 9f3c 4708 6b3d e6ff 3a3c
00000350: 42c9 343d bdad 79bd 60a8 763b 8ffd 413d
00000360: 1bf8 9e3d d5a7 fe3c 6a88 87bd 2b4b 873d
00000370: df1c d2bc a07a 09bd dc3c ccbd d749 0dbd
00000380: bc82 403d dd43 29bd 0819 fbbd 672d 61bd
00000390: 4a3a fcbd 83ad a9bc 2fa6 c9bd 431f 92bd
000003a0: 30ff 07be 20a7 c0bd 1b65 c4bc e6c9 a33d
000003b0: 1628 eeba a78d 9c3d a79b 4e3b edb4 383d
000003c0: 285d a63d 75ef a13d 10ac f6bc 6d67 d03d
000003d0: 3529 903d 08e0 babc b78b e5bc 3552 82bd
000003e0: b72c 273d 980e 78bd a9d4 043d e566 aa3c
000003f0: ba56 9abd 34d8 ad3c 3abe ae3c 16ee 633d

conv2.bias f4 [16]
0.12169464 -0.1171481 -0.35096726 0.12671715 -0.086952664 -0.26353613 0.39219633 -0.075329676
-0.0057818377 0.12370938 0.15441512 -0.11548062 -0.059582774 -0.20905146 0.17025135 0.20616135
00000000: 0a3b f93d 58eb efbd fbb1 b3be 24c2 013e
00000010: 3d14 b2bd 35ee 86be f5cd c83e 7246 9abd
00000020: 9275 bdbb 585b fd3d ff1e 1e3e 1a81 ecbd
00000030: 110d 74bd 9611 56be 5f56 2e3e f61b 533e

linear1.weight f4 [200, 400]
0.021686586 0.034395814 -0.011762898 0.0068448284 0.022098543 0.03800081 0.019047452 0.0161097
-0.018488618 -0.023476178 -0.03701523 -0.035531614 -0.039335817 0.04267452 0.0048308847 -0.027040064
-0.019288233 0.005291671 -0.012151022 -0.015178537 -0.018284349 -0.024111196 -0.0099577205 0.0010411845
0.026059251 0.022986747 0.032732926 -0.013731702 -0.031955123 -0.0051602228 -0.045467976 0.018032903
-0.009090443 -0.021618403 -0.051883493 0.006702968 0.014106651 0.030861948 -0.021393603 0.005393647
-0.031863585 -0.0595255 -0.045004006 0.01980916 -0.040297043 0.007255257 -0.013504686 -0.008621813
0.020610414 0.013975121 0.013835301 0.0004057799 -0.039998677 -0.045305915 0.018338751 0.018881926
0.01892718 0.029675525 -0.019566506 0.029298697 -0.0219683 0.032438084 -0.019792708 -0.0064399433
0.073920324 0.02149764 -0.028870072 -0.028367784 -0.02312867 0.08239008 -0.030127408 0.038056806
0.0327085 0.014802429 0.06031558 0.03591284 0.01762004 0.0441463 0.038285628 -0.033143714
0.036112227 0.027902722 -0.032813948 0.032738473 -0.018493993 -0.018326579 0.0071314867 -0.0034371335
-0.01073994 -0.023060419 0.029483015 0.05351969 -0.010099035 -0.03764663 0.0050550792 -0.050772693
-0.04165211 -0.019271882 0.022474125 -0.036996678 -0.016223213 -0.04033018 -0.072794676 -0.034491464
-0.017217496 -0.017076788 0.049675625 0.015302273 0.016354607 0.008098111 -0.0015844189 0.04232487
-0.03161181 0.025321152 0.027834006 -0.01082977 0.018762443 -0.03254467 -0.033879228 0.025144199
0.012603913 0.0046998826 0.02273367 -0.025574695 -0.012147513 0.044621956 -0.07133479 -0.01793477
0.023351245 0.048337597 0.017372688 -0.067218974 -0.008171447 -0.021001555 -0.0011554006 0.05208347
-0.0039409576 -0.032206032 -0.037820052 0.04660265 0.014352625 0.057529576 0.006746057 -0.051687516
0.021938168 0.035809483 0.0165816 -0.017028058 -0.065647684 -0.036138795 0.04162597 -0.035016786
0.0116408225 -0.012151447 0.0084540965 0.0013747207 -0.0398342 -0.021326503 0.03829417 -0.005545997
0.017116807 -0.035496797 0.01889533 -0.02411545 -0.028834365 -0.0016415081 -0.044776663 -0.056436513
-0.03667918 -0.017194808 -0.030825552 0.005253909 -0.07945862 -0.004464419 0.024856513 0.052967396
-0.027952094 -0.07481675 0.022066241 0.048557766 0.06587656 8.05263e-05 0.019034216 0.055448793
0.007836162 -0.012941321 -0.046243582 0.03603872 0.040963784 0.047298416 -0.009782238 0.013471343
-0.017074052 0.0006689827 0.023692058 -0.007247144 0.027110899 0.0070587643 -0.027344212 0.024408795
0.026791496 0.0108014885 -0.03473654 -0.052616574 0.018163579 0.014708562 -0.033022124 -0.08653095
-0.044165205 -0.009072321 0.011998697 -0.023060659 -0.062415496 -0.035065737 0.016221322 0.078254364
0.030028475 -0.006024001 0.011107995 -0.020363167 -0.043469787 0.028362095 -0.009377215 -0.03823778
-0.07632141 0.030134005 -0.041206457 0.00081806915 -0.019775938 0.013675126 -0.05093851 -0.004991239
0.012763631 0.009689865 -0.046675738 0.02441318 -0.031565547 -0.05917683 -0.042781923 -0.031532973
-0.018590132 0.026921745 -0.03930706 -0.02623904 -0.074569725 0.021524373 -0.020081444 -0.06476855
-0.022486724 -0.05505039 0.0043072915 -0.0019601088 0.032644466 -0.026763668 -0.011328935 -0.011558333
00000000: 11a8 b13c a0e2 0c3d 2cb9 40bc 954a e03b
00000010: 0108 b53c bda6 1b3d 6709 9c3c 7df8 833c
00000020: 7175 97bc 1d51 c0bc 489d 17bd 9989 11bd
00000030: 981e 21bd 7acb 2e3d 664c 9e3b 2083 ddbc
00000040: 5b02 9ebc c165 ad3b 1515 47bc 66af 78bc
00000050: 0fc9 95bc d884 c5bc b525 23bc 5b78 883a
00000060: 367a d53c b44e bc3c f612 063d effa 60bc
00000070: 60e3 02bd 1617 a9bb a13c 3abd bdb9 933c
00000080: 15f0 14bc 1419 b1bc c983 54bd 92a4 db3b
00000090: 951f 673c 32d2 fc3c a341 afbc 31bd b03b
000000a0: 6483 02bd 03d1 73bd 1f56 38bd d246 a23c
000000b0: 830e 25bd 82bd ed3b c242 5dbc 8142 0dbc
000000c0: 2cd7 a83c e8f7 643c 75ad 623c dbbe d439
000000d0: a7d5 23bd b292 39bd 263b 963c 45ae 9a3c
000000e0: 2c0d 9b3c 161a f33c f049 a0bc d203 f03c
000000f0: ddf6 b3bc ccdd 043d 5124 a2bc 2906 d3bb
00000100: 8a63 973d d21b b03c ee80 ecbc 8e63 e8bc
00000110: 5678 bdbc 21bc a83d c1cd f6bc 74e1 1b3d
00000120: 59f9 053d e385 723c 780d 773d 5819 133d
00000130: e757 903c c0d2 343d 64d1 1c3d b4c1 07bd
00000140: 6aea 133d 4094 e43c eb67 06bd c718 063d
00000150: b780 97bc 9f21 96bc 3faf e93b 8841 61bb
00000160: 93f6 2fbc 34e9 bcbc 5d86 f13c 7637 5b3d
00000170: 6c76 25bc 5a33 1abd 14a5 a53b 07f7 4fbd
00000180: 679b 2abd 11e0 9dbc a81b b83c d489 17bd
00000190: 8be6 84bc 4231 25bd 6015 95bd ec46 0dbd
000001a0: b50b 8dbc 9fe4 8bbc ab78 4b3d 63b6 7a3c
000001b0: 19fa 853c f0ad 043c 47ac cfba d85c 2d3d
000001c0: 637b 01bd 4e6e cf3c 2404 e43c 596f 31bc
000001d0: b2b3 993c 8f4d 05bd f2c4 0abd 35fb cd3c
000001e0: a580 4e3c 7901 9a3b f63b ba3c 0682 d1bc
000001f0: 5d06 47bc 83c5 363d f917 92bd f0eb 92bc
00000200: 1c4b bf3c a5fd 453d 2b51 8e3c 1aaa 89bd
00000210: 88e1 05bc 740b acbc d070 97ba 7a55 553d
00000220: 2623 81bb 79ea 03bd 33e9 1abd 6ce2 3e3d
00000230: 4627 6b3c 22a4 6b3d 070e dd3b 4ab6 53bd
00000240: acb7 b33c f7ac 123d 23d6 873c 6d7e 8bbc
00000250: 4b72 86bd 4606 14bd fe7f 2a3d c36d 0fbd
00000260: 26b9 3e3c dd16 47bc 0d83 0a3c f92f b43a
00000270: 3029 23bd ebb4 aebc 59da 1c3d 32bb b5bb
00000280: 8c38 8c3c 1765 11bd 61ca 9a3c c48d c5bc
00000290: 0c36 ecbc df27 d7ba bc67 37bd f929 67bd
000002a0: e83c 16bd 20dc 8cbc de85 fcbc fc28 ac3b
000002b0: 33bb a2bd 434a 92bb e39f cb3c 57f4 583d
000002c0: cafb e4bc 8639 99bd 43c4 b43c 82e4 463d
000002d0: 4aea 863d 3ae0 a838 a5ed 9b3c 461e 633d
000002e0: 3f63 003c d607 54bc e969 3dbd 569d 133d
000002f0: a4c9 273d fcbb 413d ae45 20bc e8b6 5c3c
00000300: e2de 8bbc ab5e 2f3a d915 c23c 7379 edbb
00000310: ad17 de3c 354d e73b f800 e0bc f4f4 c73c
00000320: d779 db3c baf8 303c e747 0ebd 7a84 57bd
00000330: c9cb 943c 2efc 703c 3542 07bd 2437 b1bd
00000340: 93e6 34bd 12a4 14bc 2f96 443c b5e9 bcbc
00000350: 64a7 7fbd 17a1 0fbd 94e2 843c d343 a03d
00000360: 47fe f53c fc64 c5bb 4ffe 353c a8d0 a6bc
00000370: 600d 32bd a057 e83c e4a2 19bc 389f 1cbd
00000380: 664e 9cbd 97db f63c 1ac8 28bd b173 563a
00000390: 2601 a2bc a30d 603c e6a4 50bd 8c8d a3bb
000003a0: 8c1e 513c 3dc2 1e3c 0f2f 3fbd 26fe c73c
000003b0: e04a 01bd 6763 72bd 193c 2fbd b828 01bd
000003c0: 554a 98bc fe8a dc3c 7100 21bd 41f3 d6bc
000003d0: 03b8 98bd e253 b03c d781 a4bc 60a5 84bd
000003e0: 1436 b8bc 857c 61bd 2e24 8d3b 2b75 00bb
000003f0: 34b6 053d 7b3f dbbc ff9c 39bc 2a5f 3dbc

linear1.bias f4 [200]
-0.013779811 0.03771031 0.030708656 -0.041708898 0.023058133 -0.002139013 -0.0453019 0.0722524
0.084768765 0.004888238 -0.018891249 -0.02456014 0.01849651 -0.0154840825 -0.002148197 -0.030243022
0.004220582 0.06068575 -0.035192188 -0.050331745 0.011756865 -0.06784193 0.062043954 0.029996758
-0.0005668585 -0.034886155 0.032916524 0.00010005922 0.02690568 -0.008932784 0.03923855 0.050976943
0.082991995 -0.026739586 0.033707254 -0.004976324 0.032597203 -0.021944609 0.021050993 0.0162915
-0.032822873 0.0066191796 -0.03021878 0.058793955 -0.0060525658 0.13225661 0.01707882 0.0032491619
-0.04317929 0.027808247 0.012911648 0.014477696 -0.029640386 -0.01965483 -0.021380223 0.0623598
-0.023946656 -0.0029542448 0.009068324 -0.029357782 0.026219761 0.026260035 -0.0055368333 0.035911225
0.012864753 0.075152665 0.0004466842 0.01883026 -0.0038965272 -0.015475062 -0.04456134 -0.01641406
-0.015752193 0.027240166 -0.024761245 0.030799879 0.020294059 0.03414708 -0.003657209 0.027029786
-0.01941723 -0.013465299 -0.062670186 0.021931645 0.053784307 -0.02211095 -0.02569889 0.021852367
-0.013378809 0.06068178 0.031685896 -0.0017661274 -0.047914706 -0.030156255 0.023047484 -0.011258079
0.013235471 0.07590702 0.02940129 0.026263226 -0.044390805 -0.051121175 0.021419832 -0.036667325
-0.017859116 -0.054623917 0.0016686606 0.04392796 0.09482661 0.08618721 0.017916262 0.02126028
0.052980557 -0.040681772 0.0067484216 -0.029596325 0.012243204 0.020521766 0.0247621 -0.051262125
0.023693627 0.022523588 0.005024576 -0.038963526 0.116118 0.051778264 -0.049787983 0.008560717
0.0019591672 0.0070130546 -0.024190055 -0.022987768 0.030326398 0.023776127 -0.011930319 0.005912468
0.01877458 0.00065240613 0.0060635265 -0.027131028 -0.045343615 0.06555977 -0.05585534 0.06921987
0.049710177 -0.056776006 -0.022957115 -0.045025166 0.079075135 0.045505974 0.036175407 -0.037780885
0.026707223 0.017660914 0.020483367 0.0019241337 -0.09097264 0.008189368 -0.036436606 0.02110931
0.04331012 0.035501424 -0.011179269 0.0022299904 -0.037233148 0.04722843 -0.0039803674 0.033204135
0.046798646 0.03791408 0.06374117 -0.016289672 -0.021387134 -0.03196196 0.00048739003 -0.018998412
0.0529483 -0.015928293 0.029192427 -0.033205416 0.031201461 -0.013211453 0.03532065 0.04476042
-0.028352449 -0.07337016 0.066312954 -0.052411254 0.028742094 0.010099622 -0.05666119 0.039162178
-0.009056875 -0.0075059547 0.043318667 -0.026140735 0.0019435249 -0.040629555 -0.03324105 -0.028828038
00000000: b7c4 61bc 2076 1a3d b890 fb3c f3d6 2abd
00000010: 69e4 bc3c af2e 0cbb 7c8e 39bd 11f9 933d
00000020: 3f9b ad3d 832d a03b d2c1 9abc 5932 c9bc
00000030: fe85 973c f3b0 7dbc c4c8 0cbb 37c0 f7bc
00000040: cf4c 8a3b 9f91 783d af25 10bd a928 4ebd
00000050: de9f 403c b6f0 8abd cd21 7e3d c3bb f53c
00000060: 3b99 14ba c9e4 0ebd 7ad3 063d e2d6 d138
00000070: 4d69 dc3c d05a 12bc 9ab8 203d 33cd 503d
00000080: b5f7 a93d fa0c dbbc 9e10 0a3d 6e10 a3bb
00000090: a584 053d 2ec5 b3bc 2273 ac3c c075 853c
000000a0: 4771 06bd b4e5 d83b 608d f7bc eed1 703d
000000b0: 9a54 c6bb 476e 073e e2e8 8b3c e4ef 543b
000000c0: c4dc 30bd 1fce e33c 608b 533c dc33 6d3c
000000d0: 65d0 f2bc 2b03 a1bc 9425 afbc fd6c 7f3d
000000e0: c72b c4bc 019c 41bb 4f93 143c bb7f f0bc
000000f0: d3ca d63c 491f d73c 536e b5bb a617 133d
00000100: afc6 523c a4e9 993d f030 ea39 eb41 9a3c
00000110: e15c 7fbb 1d8b 7dbc f485 36bd c776 86bc
00000120: be0a 81bc c526 df3c 18d8 cabc 0750 fc3c
00000130: ba3f a63c cfdd 0b3d c9ad 6fbb 926d dd3c
00000140: e210 9fbc 8f9d 5cbc 3a59 80bd fea9 b33c
00000150: ef4c 5c3d 0622 b5bc 7b86 d2bc bc03 b33c
00000160: cb32 5bbc 758d 783d 12c9 013d 677d e7ba
00000170: 3642 44bd 400a f7bc 14ce bc3c ce73 38bc
00000180: 97d9 583c 2475 9b3d f9da f03c fa25 d73c
00000190: 22d3 35bd 7064 51bd a578 af3c 7a30 16bd
000001a0: 484d 92bc 54bd 5fbd f5b6 da3a ceed 333d
000001b0: 7434 c23d ec82 b03d 20c5 923c 0a2a ae3c
000001c0: 2402 593d eea1 26bd dd21 dd3b fe73 f2bc
000001d0: b897 483c 431d a83c e3d9 ca3c 3cf8 51bd
000001e0: 2319 c23c 6383 b83c 33a5 a43b 3898 1fbd
000001f0: 46cf ed3d 7215 543d 7cee 4bbd 4042 0c3c
00000200: 5f65 003b c4cd e53b 392a c6bc d850 bcbc
00000210: 116f f83c 27c6 c23c 6277 43bc 60bd c13b
00000220: 26cd 993c 3c06 2b3a 8cb0 c63b e441 debc
00000230: 3aba 39bd 3344 863d 92c8 64bd 26c3 8d3d
00000240: e69c 4b3d f58d 68bd 8f10 bcbc 4f6c 38bd
00000250: 25f2 a13d 7964 3a3d aa2c 143d 21c0 1abd
00000260: 1bc9 da3c 9fad 903c bccc a73c 3733 fc3a
00000270: dd4f babd b32c 063c 8d3e 15bd 6fed ac3c
00000280: f465 313d f169 113d 4129 37bc 0825 123b
00000290: c981 18bd 9972 413d be6d 82bb 0f01 083d
000002a0: f0af 3f3d cb4b 1b3d bb8a 823d eb71 85bc
000002b0: 1234 afbc 8bea 02bd 6288 ff39 8fa2 9bbc
000002c0: 51e0 583d 0d7c 82bc f524 ef3c 6702 08bd
000002d0: 359a ff3c da74 58bc 63ac 103d b456 373d
000002e0: 6543 e8bc 1843 96bd 16cf 873d 2fad 56bd
000002f0: 8a74 eb3c e378 253c 9015 68bd 8568 203d
00000300: 4963 14bc 83f4 f5bb ea6e 313d 1825 d6bc
00000310: e0bd fe3a 2d6b 26bd c427 08bd c728 ecbc

linear2.weight f4 [150, 200]
0.082595 0.038102463 0.035091527 -0.010899872 -0.02598735 -0.09751824 -0.033238392 1.754581e-05
-0.027853338 -0.02730631 -0.0963593 -0.049901996 0.060363375 0.034205716 0.045798756 0.067903385
0.046731874 -0.06758004 0.05987512 -0.043852177 -0.06480142 -0.041477993 0.02965591 -0.0354744
-0.050083578 0.0034483813 -0.02729542 -0.047981896 0.008197268 0.028614558 0.023865145 -0.055449866
0.007064102 -0.010976804 -0.009274737 0.017649435 0.02617019 -0.04788898 -0.015065551 0.067434214
-0.06447761 -0.0018912113 -0.024135439 0.0037072315 -0.07191148 0.023545152 -0.053186387 -0.043546975
0.042596806 0.05311835 0.06849329 -0.03333146 0.04985364 0.021123124 0.08788519 -0.060618322
-0.002365956 -0.033760995 -0.0013024197 -0.037434615 -0.059280302 -0.042023942 -0.056232177 -0.0473573
0.06358396 -0.025053112 0.067257784 -0.034462377 -0.057949763 -0.024756912 0.04192548 0.037254114
0.04805871 -0.043568447 -0.033081505 -0.070132 -0.06825985 0.03126747 -0.0355511 -0.07173617
-0.016040146 -0.00037616518 -0.05223327 0.039298926 0.019589834 -0.018974207 0.04527442 0.07027555
0.0053354236 -0.053566713 0.016765725 0.06742982 -0.0063969283 -0.001129609 -0.08318385 0.09076384
0.021131093 0.01143124 0.0633724 0.0487731 -0.03633093 0.025442457 -0.012108111 0.04101576
0.033226162 0.0005104976 0.008092856 0.06934682 -0.000464155 0.009350019 -0.06089596 0.01950547
-0.07632795 -0.047390327 0.03689488 -0.005828441 -0.0070301257 0.0480767 0.046259392 -0.028521724
0.046112478 -0.013859205 -0.023952032 -0.024024425 0.01775309 0.061032128 -0.03438921 -0.05393772
0.050529413 -0.012922873 0.009072566 -0.1019236 0.054559037 0.03752534 0.023597706 0.07155894
0.022708006 0.01601165 -0.022584518 0.0038195502 0.05694072 -0.011600358 0.063876085 0.013320128
0.0022096627 -0.06094445 -0.07587314 -0.021072589 0.012077962 -0.013354335 -0.043785047 0.0004901543
-0.02254874 0.02811487 0.028820448 -0.039554805 0.01372375 0.10081194 0.016884858 0.046354137
0.09433206 0.031064078 -0.037992034 0.05604149 0.07777615 -0.033092815 0.07922379 0.004555575
-0.031489644 -0.05586569 -0.0040232153 -0.059501197 0.05839649 0.06569885 -0.037260182 -0.06949461
-0.010447554 -0.077529326 -0.077254795 0.08539171 0.02173065 0.055555053 0.11342296 -0.062205143
0.02008232 -0.083853774 -0.05292181 -0.043025646 0.019559307 -0.063289315 0.020862067 -0.039437216
0.064806156 -0.010889998 -0.013854051 0.00028093826 0.1204935 -0.0009226999 -0.057342548 0.07882833
-0.018849546 0.059606325 -0.09326114 0.016843054 0.05445374 0.02162198 0.027127163 -0.05181104
-0.017550869 -0.013941467 0.040835503 -0.0762113 0.06337184 0.02019972 -0.07162151 -0.01571187
-0.006997815 0.00869166 0.048668902 0.019062588 0.08081448 0.026629834 0.05731754 0.098464265
-0.006113146 0.031137329 -0.08676049 0.0074580065 -0.07336596 0.061554234 0.073763624 0.087197945
0.044744067 0.044275474 -0.060460452 -0.076248944 0.036134727 -0.06662011 -0.043140218 -0.003471408
0.036737226 -0.020404682 -0.066106156 -0.03158606 -0.047244206 0.01418975 0.060329467 0.015542428
0.083979666 0.026459783 0.04041421 -0.07080538 -0.08789965 0.027184313 -0.103790626 0.052356593
00000000: 9127 a93d 5411 1c3d 22bc 0f3d 6095 32bc
00000010: 6ce3 d4bc a5b7 c7bd fb24 08bd 572f 9337
00000020: af2c e4bc 7cb1 dfbc 0658 c5bd 0966 4cbd
00000030: 963f 773d 4b1b 0c3d 7a97 3b3d ee10 8b3d
00000040: ec69 3f3d 6767 8abd 9d3f 753d 579e 33bd
00000050: 9bb6 84bd d4e4 29bd f3f0 f23c 9b4d 11bd
00000060: 7024 4dbd 3dfe 613b a59a dfbc aa88 44bd
00000070: d54d 063c 1469 ea3c d680 c33c 661f 63bd
00000080: fc79 e73b 0ed8 33bc 11f5 17bc 8c95 903c
00000090: de62 d63c 3c27 44bd 80d5 76bc f31a 8a3d
000000a0: d60c 84bd 85e2 f7ba afb7 c5bc 06f5 723b
000000b0: 5346 93bd c3e1 c03c f8d9 59bd 505e 32bd
000000c0: fd79 2e3d a192 593d 3646 8c3d 9286 08bd
000000d0: 5533 4c3d 670a ad3c 27fd b33d eb4a 78bd
000000e0: 280e 1bbb f848 0abd f4b5 aaba 0a55 19bd
000000f0: e7cf 72bd 4c21 2cbd b653 66bd baf9 41bd
00000100: 4f38 823d 2f3c cdbc 73be 893d 6c28 0dbd
00000110: bb5c 6dbd 02cf cabc 0dba 2b3d c597 183d
00000120: 36d9 443d d474 32bd 7980 07bd 5ea1 8fbd
00000130: d2cb 8bbd 5212 003d 089e 11bd 6aea 92bd
00000140: a066 83bc 0938 c5b9 8ef2 55bd e9f7 203d
00000150: dc7a a03c cc6f 9bbc ac71 393d a1ec 8f3d
00000160: c7d4 ae3b c568 5bbd 4658 893c a518 8a3d
00000170: 539d d1bb 630f 94ba 4b5c aabd 64e2 b93d
00000180: 1d1b ad3c 184a 3b3c 64c9 813d 4dc6 473d
00000190: becf 14bd b36c d03c 1961 46bc 2400 283d
000001a0: 2818 083d ead2 053a e697 043c b505 8e3d
000001b0: d459 f3b9 d230 193c 0b6e 79bd efc9 9f3c
000001c0: d451 9cbd 5c1c 42bd 161f 173d 82fc bebb
000001d0: f85c e6bb 13ec 443d 7d7a 3d3d 64a6 e9bc
000001e0: 70e0 3c3d b811 63bc 0d37 c4bc dfce c4bc
000001f0: ee6e 913c d3fc 793d b3db 0cbd cced 5cbd
00000200: eef7 4e3d 75ba 53bc 1aa5 143c 52bd d0bd
00000210: 4c79 5f3d 2cb4 193d fa4f c13c 7e8d 923d
00000220: 2406 ba3c dd2a 833c 2b03 b9bc 6b51 7a3b
00000230: ac3a 693d 6e0f 3ebc 77d1 823d ab3c 5a3c
00000240: fdcf 103b e3a0 79bd 6063 9bbd 6ca0 acbc
00000250: a5e2 453c 24cc 5abc f357 33bd b37d 003a
00000260: 23b8 b8bc 2851 e63c dc18 ec3c 3804 22bd
00000270: 94d9 603c 7e76 ce3d 1d52 8a3c d6dd 3d3d
00000280: 2b31 c13d 187a fe3c 899d 1bbd c38b 653d
00000290: 1a49 9f3d 558c 07bd 1540 a23d ef46 953b
000002a0: 49fb 00bd 6cd3 64bd 2dd5 83bb 87b7 73bd
000002b0: 2831 6f3d 1e8d 863d 229e 18bd 3153 8ebd
000002c0: 382c 2bbc b2c7 9ebd c337 9ebd d9e1 ae3d
000002d0: 7a04 b23c b28d 633d 4c4a e83d d2ca 7ebd
000002e0: ad83 a43c 87bb abbd 8ac4 58bd a93b 30bd
000002f0: d73a a03c d49d 81bd ede6 aa3c eb88 21bd
00000300: 17b9 843d f66b 32bc 1afc 62bc e54a 9339
00000310: 4cc5 f63d 58e1 71ba 05e0 6abd bf70 a13d
00000320: 5d6a 9abc c325 743d b2ff bebd 72fa 893c
00000330: e30a 5f3d 9420 b13c c939 de3c d037 54bd
00000340: d7c6 8fbc c06a 64bc 2143 273d ac14 9cbd
00000350: 18c9 813d e279 a53c 4cae 92bd 2eb6 80bc
00000360: ed4d e5bb 7767 0e3c 0b59 473d 2529 9c3c
00000370: 1082 a53d cf26 da3c ccc5 6a3d a2a7 c93d
00000380: c950 c8bb b613 ff3c 7caf b1bd 4b62 f43b
00000390: e440 96bd 4b20 7c3d 6211 973d d694 b23d
000003a0: 8e45 373d 335a 353d 61a5 77bd 6828 9cbd
000003b0: 0202 143d 2070 88bd ccb3 30bd 9080 63bb
000003c0: c679 163d b827 a7bc aa62 87bd 6260 01bd
000003d0: 2483 41bd 207c 683c 081c 773d aba5 7e3c
000003e0: 88fd ab3d 30c2 d83c 5f89 253d 6902 91bd
000003f0: bb04 b4bd a3b1 de3c 2e90 d4bd de73 563d

linear2.bias f4 [150]
0.0031754992 -0.07510231 0.088447876 0.0016959414 0.062284287 0.08773219 0.023441572 -0.046532243
-0.0076752324 -0.021544373 0.09315575 0.059639037 0.2030054 0.027856689 0.008475973 0.05189531
-0.0811439 0.051753532 0.11012113 -0.01090826 -0.05586344 -0.09413098 0.06220352 -0.03719083
0.08297113 0.12616047 -0.022581972 0.1146448 -0.044264168 -0.032974187 -0.05125678 -0.048750266
0.028770268 0.10721816 -0.008789656 -0.017553963 0.064187765 -0.12369978 0.12381441 0.062208068
0.014815156 0.07726726 0.17415032 0.063677154 -0.075574026 0.0027080684 0.0028515249 0.061582156
0.057280257 -0.020154692 -0.03139417 -0.060639158 -0.04302936 -0.07780267 0.076562785 0.013587601
-0.045809742 0.08065608 0.007739375 -0.060181495 -0.069185555 0.077780865 -0.03948908 0.018238543
0.016361257 0.03687319 -0.03800653 -0.022802303 0.11050746 -0.064364195 0.09337624 -0.054610934
-0.007408212 -0.05673798 0.06486619 -0.01796385 -0.029803548 0.0150116505 0.054910358 -0.073244505
-0.0290269 0.12770869 0.02710631 -0.050699323 0.0026915409 0.08627424 0.04535399 -0.027625091
0.031316236 -0.0042576585 0.03404019 0.033513125 -0.023191826 -0.06216205 0.06402366 0.016126426
0.01750402 0.081948996 -0.015621707 -0.05547999 -0.052127667 0.021464484 -0.04796372 -0.014161794
-0.043201514 -0.056233197 -0.036543164 -0.052634742 -0.050127696 -0.054470677 0.060837626 0.1376046
-0.052386962 -0.012221305 -0.020460311 0.097582586 -0.05396779 0.0022065628 -0.05151218 -0.021827726
-0.06481491 0.041558154 -0.013638745 -0.03288587 -0.011499669 -0.040684074 0.020157602 -0.041354567
0.06665438 -0.034242537 0.016943352 0.06547765 -0.014379231 0.0058567165 -0.02645744 -0.009526638
0.03280464 -0.083610676 -0.027919898 0.14697309 -0.040657695 0.127348 -0.04447233 -0.056931026
0.061589662 -0.019321153 0.054625906 0.06736464 0.019372052 0.07092474
00000000: 091c 503b 3dcf 99bd 2924 b53d 5a4a de3a
00000010: cf1d 7f3d efac b33d 8a08 c03c 9898 3ebd
00000020: 8480 fbbb d37d b0bc 71c8 be3d 1048 743d
00000030: a6e0 4f3e b633 e43c cfde 0a3c 2d90 543d
00000040: c62e a6bd 83fb 533d 3087 e13d 8fb8 32bc
00000050: 10d1 64bd bec7 c0bd 1ec9 7e3d 6955 18bd
00000060: c5ec a93d 3630 013e d4fd b8bc e5ca ea3d
00000070: 584e 35bd f10f 07bd a1f2 51bd 5cae 47bd
00000080: a0af eb3c 3295 db3d 7d02 10bc 54cd 8fbc
00000090: e074 833d 4f56 fdbd 6992 fd3d e3cd 7e3d
000000a0: 45bb 723c 4c3e 9e3d 7654 323e 2b69 823d
000000b0: 8ec6 9abd d979 313b a6e0 3a3b 923d 7c3d
000000c0: b49e 6a3d 741b a5bc 2c97 00bd c460 78bd
000000d0: 8e3f 30bd 0257 9fbd f3cc 9c3d 879e 5e3c
000000e0: ffa2 3bbd 042f a53d 959a fd3b df80 76bd
000000f0: 28b1 8dbd 934b 9f3d 4dbf 21bd ff68 953c
00000100: 0b08 863c 5808 173d bcac 1bbd e5cb babc
00000110: bc51 e23d 60d1 83bd 0b3c bf3d b7af 5fbd
00000120: 96c0 f2bb 1666 68bd 91d8 843d ed28 93bc
00000130: 9226 f4bc 6df3 753c afe9 603d 3701 96bd
00000140: d2c9 edbc 11c6 023e 0d0e de3c 18aa 4fbd
00000150: 9064 303b 8cb0 b03d 1bc5 393d 044e e2bc
00000160: 7445 003d d483 8bbb ba6d 0b3d 0f45 093d
00000170: c9fc bdbc a29d 7ebd d61e 833d 911b 843c
00000180: 9764 8f3c e0d4 a73d 30f2 7fbc fc3e 63bd
00000190: d283 55bd 49d6 af3c 9b75 44bd df06 68bc
000001a0: 12f4 30bd c854 66bd 49ae 15bd 8797 57bd
000001b0: b352 4dbd a51c 5fbd e030 793d 38e8 0c3e
000001c0: b693 56bd de3b 48bc 629c a7bc 61d9 c73d
000001d0: 540d 5dbd fb9b 103b 70fe 52bd 0fd0 b2bc
000001e0: aebd 84bd e238 2a3d 0b75 5fbc 56b3 06bd
000001f0: 1c69 3cbc 58a4 26bd 8e21 a53c 6863 29bd
00000200: 1782 883d e741 0cbd c9cc 8a3c 2519 863d
00000210: de96 6bbc b3e9 bf3b 46bd d8bc 9e15 1cbc
00000220: 285e 063d 133c abbd 45b8 e4bc 1d80 163e
00000230: af88 26bd 8467 023e 9e28 36bd 8230 69bd
00000240: 7145 7c3d 6547 9ebc 6abf 5f3d 79f6 893d
00000250: 23b2 9e3c fd40 913d

linear3.weight f4 [100, 150]
0.009288188 0.09329453 -0.0930104 0.016762432 -0.1506817 0.03545527 -0.045993496 0.065163575
0.12049782 -0.078981705 -0.039340287 0.12094912 -0.04136104 -0.03319999 0.001993855 0.08327252
0.025433345 0.040516026 -0.051958006 0.061147828 -0.0431018 0.08428765 -0.14377066 -0.08767528
-0.09406977 -0.0401547 -0.05117116 -0.003975275 0.06849336 0.20230612 -0.054395955 -0.03144096
-0.011182944 0.10493634 0.03393086 0.11111203 -0.013964777 0.019082353 0.008558473 -0.06445818
-0.030573169 -0.08871841 -0.108188935 0.014730236 -0.08682378 -0.008266055 0.05828233 -0.0447641
-0.0018232141 -0.12190588 0.0124303065 0.00907508 0.00042692863 0.0085379705 -0.0035241994 -0.008987868
0.09354027 0.09708688 -0.003927687 -0.009234611 -0.03068218 0.11739726 -0.00040040433 0.04522913
0.10257741 0.06748641 -0.012140223 -0.018927205 -0.023630703 -0.0392933 -0.008142963 0.043683693
-0.01255557 -0.027678749 0.08536511 0.06281362 -0.017438753 0.04148619 0.015265331 0.17093605
0.06813826 0.049444508 0.077144 0.022335917 0.08190034 -0.07205242 0.11452707 -0.03767135
0.028764665 -0.016859949 -0.024901802 -0.12062924 -0.061510988 -0.10712468 -0.026730515 -0.007620929
0.03439507 -0.03510979 -0.08173166 -0.06607994 0.057294305 0.02789153 -0.01294927 -0.0179487
-0.015007672 0.07447744 -0.02640182 0.09775455 0.07458775 -0.079720356 -0.08905174 -0.16854562
0.1249135 0.10741851 -0.029340334 -0.061169375 -0.05210722 0.0073490483 -0.03699388 -0.05088756
0.03711851 0.05525324 0.0116397375 -0.0704269 0.06963587 -0.04213362 0.068860225 -0.025683641
-0.0015016231 0.023667283 0.041485302 0.0051408815 0.03319147 -0.04219235 0.007550136 0.0010311451
-0.066557035 -0.027499076 0.068996884 -0.13910441 -0.07062092 -0.012466497 -0.10793473 0.019836277
-0.041147277 0.10079021 0.004081183 -0.03953139 0.02031793 0.1287396 0.08834442 0.0015968052
0.041201644 -0.05811003 0.00467797 0.012688518 -0.035625923 0.028046574 -0.10348642 0.011481732
-0.018290501 0.034602806 -0.05151744 -0.042549297 -0.06910481 0.076791026 0.029694447 -0.10821881
-0.096037276 -0.031107888 0.025927292 0.0038065896 -0.021867651 0.075482555 -0.07920701 0.039868046
0.036546282 -0.0555713 0.11895551 -0.027857512 0.033337835 -0.030530619 0.01155817 0.0013436881
-0.116750695 -0.13040678 0.10280144 0.022621451 -0.10903366 0.071989484 0.0014172534 0.003838417
0.014934457 0.076561615 -0.0031429045 0.038679745 -0.11160424 -0.018623814 0.08980542 -0.08167684
0.0029652163 -0.041585833 -0.022895519 0.09015644 -0.0867634 0.041518588 0.114564694 -0.058353506
-0.011676582 0.005450347 0.036468193 0.038291477 0.001406838 -0.015819026 -0.047802255 -0.022314968
0.09720023 0.017490547 -0.057717837 0.070204124 -0.042116135 0.073035926 0.12505087 0.022292502
-0.05718304 0.080451004 -0.06413498 -0.1189031 -0.04831348 0.11469809 0.044003487 0.09023453
0.05076605 -0.052686144 0.08233462 0.011083448 -0.00095684704 -0.058178514 -0.01528125 -0.08754837
0.052711125 0.107844226 0.0830005 0.019798648 -0.008241559 0.07259764 -0.0058683497 0.02445651
0.03399277 -0.07917972 0.05302726 -0.032092337 0.08211444 -0.13547033 -0.038467407 0.06316759
00000000: 7c2d 183c 3411 bf3d 3d7c bebd 5e51 893c
00000010: 4e4c 1abe 8c39 113d ad63 3cbd 7b74 853d
00000020: 90c7 f63d 29c1 a1bd 4823 21bd 2cb4 f73d
00000030: 326a 29bd b6fc 07bd 56ab 023b c88a aa3d
00000040: 9759 d03c 22f4 253d ebd1 54bd 2576 7a3d
00000050: 838b 30bd 019f ac3d 9e38 13be 198f b3bd
00000060: a7a7 c0bd 4179 24bd da98 51bd 0643 82bb
00000070: 3f46 8c3d 5629 4f3e 4bce 5ebd 3cc8 00bd
00000080: ab38 37bc dde8 d63d 16fb 0a3d b48e e33d
00000090: 85cc 64bc 9852 9c3c d638 0c3c a602 84bd
000000a0: 9574 fabc ffb1 b5bd 2992 ddbd 1657 713c
000000b0: aad0 b1bd 596e 07bc 74b9 6e3d 905a 37bd
000000c0: eaf8 eeba caa9 f9bd 7ca8 4b3c a5af 143c
000000d0: 64d5 df39 d8e2 0b3c 41f6 66bb da41 13bc
000000e0: 0b92 bf3d 7cd5 c63d d4b3 80bb c44c 17bc
000000f0: 3259 fbbc fa6d f03d 5ced d1b9 2e42 393d
00000100: 1b14 d23d 5136 8a3d c9e7 46bc 3a0d 9bbc
00000110: 2d95 c1bc 03f2 20bd 106a 05bc aced 323d
00000120: e1b5 4dbc 8bbe e2bc e7d3 ae3d 6da4 803d
00000130: b7db 8ebc 6ced 293d 701b 7a3c dc09 2f3e
00000140: 128c 8b3d 5386 4a3d acfd 9d3d d0f9 b63c
00000150: 5ebb a73d 3890 93bd 2b8d ea3d 464d 1abd
00000160: e0a3 eb3c e01d 8abc ddfe cbbc 770c f7bd
00000170: f2f2 7bbd 2f64 dbbd f4f9 dabc fcb8 f9bb
00000180: d8e1 0c3d 48cf 0fbd ee62 a7bd eb54 87bd
00000190: 6fad 6a3d c77c e43c 2d29 54bc 2709 93bc
000001a0: bde2 75bc a187 983d a148 d8bc 8a33 c83d
000001b0: 76c1 983d 6d44 a3bd c260 b6bd 3997 2cbe
000001c0: a6d2 ff3d 3cfe db3d 245b f0bc bd8c 7abd
000001d0: 616e 55bd 49d0 f03b e586 17bd 796f 50bd
000001e0: 9409 183d 3951 623d 99b4 3e3c fb3b 90bd
000001f0: 409d 8e3d 4d94 2cbd 9706 8d3d 8066 d2bc
00000200: 1cd2 c4ba e4e1 c13c 7eec 293d d774 a83b
00000210: c7f3 073d e3d1 2cbd 2267 f73b 7d27 873a
00000220: 0e4f 88bd be45 e1bc 3d4e 8d3d 6371 0ebe
00000230: b3a1 90bd 4740 4cbc e20c ddbd b07f a23c
00000240: 0c8a 28bd 196b ce3d 72bb 853b abeb 21bd
00000250: ca71 a63c 50d4 033e ebed b43d e44b d13a
00000260: 0ec3 283d c804 6ebd a849 993b 80e3 4f3c
00000270: 7dec 11bd eec1 e53c b0f0 d3bd e01d 3c3c
00000280: f6d5 95bc acbb 0d3d f303 53bd 2c48 2ebd
00000290: d386 8dbd 9d44 9d3d c541 f33c d3a1 ddbd
000002a0: 31af c4bd f8d5 febc 7965 d43c fa77 793b
000002b0: ca23 b3bc 9996 9a3d 4937 a2bd ad4c 233d
000002c0: 8eb1 153d bb9e 63bd f29e f33d 7035 e4bc
000002d0: 418d 083d 591b fabc 7b5e 3d3c b11e b03a
000002e0: fd1a efbd 5b89 05be 9089 d23d 9f50 b93c
000002f0: 0a4d dfbd 396f 933d 22c3 b93a f38d 7b3b
00000300: a7af 743c 56cc 9c3d 30f9 4dbb a76e 1e3d
00000310: c490 e4bd f890 98bc e7eb b73d 3046 a7bd
00000320: 1354 423b e855 2abd 628f bbbc f1a3 b83d
00000330: 02b1 b1bd 650f 2a3d e5a0 ea3d 1604 6fbd
00000340: 224f 3fbc d398 b23b ac5f 153d 86d7 1c3d
00000350: a665 b83a e796 81bc 4ccc 43bd e1cd b6bc
00000360: ea10 c73d 5648 8f3c 8a69 6cbd 2ec7 8f3d
00000370: f881 2cbd dc93 953d 560d 003e c49e b63c
00000380: c338 6abd 7fc3 a43d 3359 83bd 7883 f3bd
00000390: 5be4 45bd d5e6 ea3d 003d 343d e2cc b83d
000003a0: 10f0 4f3d 6dcd 57bd 0e9f a83d 5a97 353c
000003b0: ebd4 7aba 984c 6ebd 355e 7abc 8f4c b3bd
000003c0: 9fe7 573d 6fdd dc3d 2bfc a93d c630 a23c
000003d0: 9b07 07bc 12ae 943d 494b c0bb 0559 c83c
000003e0: 013c 0b3d fa28 a2bd 1d33 593d 4173 03bd
000003f0: 9e2b a83d bcb8 0abe 0090 1dbd 025e 813d

linear3.bias f4 [100]
-0.036960725 -0.13182603 -0.0050295237 -0.09549752 0.05859087 0.08882396 -0.14852923 -0.03371933
0.033117853 -0.062229544 0.03731267 -0.07071622 0.06223458 -0.07398241 -0.16993096 -0.0549038
0.028287904 0.030228082 0.04424159 -0.008836027 0.01934488 -0.16234994 0.061704174 0.181101
0.0049386937 0.081603386 -0.052575205 0.012274676 0.021944772 -0.040521774 0.059033163 -0.0054062293
0.030766005 -0.07359036 0.019758845 0.027881665 0.086590305 0.045593653 0.05084567 0.10010146
0.021675667 0.004480131 0.045181673 0.023361068 0.029138673 -0.08792476 -0.10614357 -0.026594397
-0.061341844 0.07474732 0.032123893 -0.12872651 -0.055810083 -0.1336296 0.00877534 0.07709632
-0.065076485 -0.069855064 -0.03565261 -0.0060945232 0.04711777 0.21523745 -0.2546743 0.07519232
-0.0529156 0.044831626 -0.01703414 0.034783285 0.11759446 0.11191107 -0.06954974 0.11638626
0.049675003 -0.0406416 0.031244176 -0.14746237 0.06247868 0.0073185894 0.07275827 0.05495732
0.05605685 -0.025206374 -0.11275234 -0.16546968 -0.013507138 0.0009839962 -0.023483166 -0.022465542
0.010982927 -0.08077155 0.014731535 0.1218486 -0.1995889 0.066741414 0.036034845 0.021724196
0.0057506957 -0.00420161 -0.02631427 0.06623412
00000000: 2164 17bd 67fd 06be b4ce a4bb 3494 c3bd
00000010: fbfc 6f3d 56e9 b53d 0c18 18be 481d 0abd
00000020: 96a6 073d 68e4 7ebd 2cd5 183d aad3 90bd
00000030: b0e9 7e3d 1784 97bd 6202 2ebe cfe2 60bd
00000040: 09bc e73c e2a0 f73c ab36 353d fcc4 10bc
00000050: 2779 9e3c 103f 26be 84bd 7c3d 8a72 393e
00000060: c4d4 a13b ad1f a73d 1959 57bd b91b 493c
00000070: 86c5 b33c 29fa 25bd c2cc 713d bd26 b1bb
00000080: fd08 fc3c 8bb6 96bd 4ddd a13c 1768 e43c
00000090: 4256 b13d 69c0 3a3d 8d43 503d ff01 cd3d
000000a0: 2b91 b13c 10ce 923b 6b10 393d b65f bf3c
000000b0: 3ab4 ee3c e611 b4bd cd61 d9bd 7edc d9bc
000000c0: 9641 7bbd 1f15 993d 5894 033d e2d0 03be
000000d0: 1d99 64bd 33d6 08be 72c6 0f3c ade4 9d3d
000000e0: d246 85bd 2c10 8fbd 7908 12bd 91b4 c7bb
000000f0: 90fe 403d 3567 5c3e ab64 82be 6efe 993d
00000100: 07be 58bd 5ea1 373d 2e8b 8bbc eb78 0e3d
00000110: 5dd5 f03d a231 e53d 1870 8ebd eb5b ee3d
00000120: 0478 4b3d ce77 26bd c9f3 ff3c 6000 17be
00000130: a5e9 7f3d c7d0 ef3b 4a02 953d ed1a 613d
00000140: de9b 653d 997d cebc b3ea e6bd e270 29be
00000150: 0b4d 5dbc 6ff9 803a c55f c0bc a809 b8bc
00000160: bcf1 333c 8e6b a5bd 895c 713c c28b f93d
00000170: 0861 4cbe b9af 883d 4699 133d f1f6 b13c
00000180: 5570 bc3b a9ad 89bb 0691 d7bc c1a5 873d
